models/deep_q.onnx (onnx, 7226 bytes, 6 tensors)

fc_input.weight f4 [50, 3]
-0.4981933 0.25394008 0.49596655 -0.35934502 -0.004981518 0.09489423 0.07503349 -0.35141948
0.25100768 -0.08508437 0.08631258 0.8316565 -0.31826308 -0.2861904 -0.098744094 -0.3774634
0.048342228 -0.31084457 -0.3814328 -0.25328007 -0.5669248 0.13580365 -1.393912 0.5262234
0.0017135725 -0.6289511 -0.8211554 -0.0041383505 -0.45952368 -0.028113663 -0.5715847 0.28062654
0.52023804 -0.41610894 0.17460303 0.18428221 0.07320155 -0.7170812 0.05047229 -0.26517177
0.35995495 0.0388365 0.4429839 -0.06569973 1.4233881 -0.117155515 -0.44362348 -0.08539924
-0.25261325 -0.21721414 0.105427265 -0.18358883 -0.50269675 -0.41417015 -0.09961911 -0.36601654
1.4400452 -0.469912 0.21404839 0.152282 0.09506054 -0.94722867 -0.14192474 -0.7766011
0.22910242 -0.42136452 0.035426367 -0.21986252 0.27170146 -0.0014796248 -0.11067063 -0.09720023
-0.031541485 -0.04452464 3.0771616 -0.48007715 -0.12943973 -0.99398965 0.0044110096 -0.3332188
-0.48239622 -0.791213 0.2343646 -0.45260376 0.00572264 -0.32225293 -0.018182376 -0.001850317
0.04797694 0.28777528 -0.08220637 -0.02750659 0.016287625 -0.96712875 0.34030953 -0.059922084
0.0995286 -0.35342968 0.062419556 0.0320818 -0.30788714 -0.38347843 -0.40444696 -0.5726846
0.44490933 0.21974505 0.21319366 0.955504 -0.18001498 -0.48744783 2.2240458 -0.22630787
0.021579504 0.50282776 -0.1482282 0.1719879 -0.11873408 -0.6667814 0.3367548 1.204697
-0.5248273 -0.06521022 -0.31632861 0.06962692 -0.83924216 0.89277536 0.4292768 -0.07926302
0.30223888 0.020303423 0.09427269 0.017942283 0.02126861 -0.045312528 0.82157636 -0.14259025
0.15572977 0.56688315 0.055712707 -0.47542912 -1.2281599 -0.3078106 -0.5166449 0.08226037
0.021911914 -0.41519448 0.53343785 -0.10698662 -0.14040716 -2.1036747
00000000: 3113 ffbe 6f04 823e 54ef fd3e 12fc b7be
00000010: 003c a3bb e857 c23d 29ab 993d 41ed b3be
00000020: 1484 803e b740 aebd a6c4 b03d 71e7 543f
00000030: 61f3 a2be 8c87 92be 583a cabd e242 c1be
00000040: 8002 463d 0527 9fbe 294b c3be edad 81be
00000050: fc21 11bf 1d10 0b3e b56b b2bf 94b6 063f
00000060: f499 e03a f002 21bf 3e37 52bf 009b 87bb
00000070: b046 ebbe a04e e6bc 6053 12bf 48ae 8f3e
00000080: 522e 053f 3b0c d5be 23cb 323e 7ab4 3c3e
00000090: b2ea 953d a292 37bf 08bc 4e3d 98c4 87be
000000a0: 044c b83e 0613 1f3d c9ce e23e 948d 86bd
000000b0: 9531 b63f 3bef efbd 9e22 e3be cce5 aebd
000000c0: 8656 81be 626d 5ebe 40ea d73d b6fe 3bbe
000000d0: bcb0 00bf 1c0e d4be 1b05 ccbd 8566 bbbe
000000e0: 6753 b83f 4e98 f0be 802f 5b3e d0ef 1b3e
000000f0: 1aaf c23d 947d 72bf b854 11be 54cf 46bf
00000100: d399 6a3e 17bd d7be 3d1b 113d a423 61be
00000110: 741c 8b3e f8ef c1ba 49a7 e2bd ea10 c7bd
00000120: a531 01bd 785f 36bd 37f0 4440 accc f5be
00000130: d98b 04be 1b76 7ebf 3b8a 903b a89b aabe
00000140: a3fc f6be ef8c 4abf 46fd 6f3e aebb e7be
00000150: fc84 bb3b 56fe a4be 35f3 94bc 5686 f2ba
00000160: 7883 443d 4857 933e d05b a8bd 8055 e1bc
00000170: a06d 853c c095 77bf 0d3d ae3e dc70 75bd
00000180: a7d5 cb3d bcf4 b4be a6ab 7f3d 3568 033d
00000190: 62a3 9dbe 4957 c4be ac13 cfbe 759b 12bf
000001a0: 28cb e33e d904 613e 704f 5a3e e99b 743f
000001b0: d955 38be c392 f9be c456 0e40 40bd 67be
000001c0: 80c7 b03c 52b9 003f 22c9 17be 991d 303e
000001d0: da2a f3bd 30b2 2abf 206b ac3e 8333 9a3f
000001e0: 155b 06bf f08c 85bd d3f5 a1be 8f98 8e3d
000001f0: 93d8 56bf ed8c 643f 2bca db3e a654 a2bd
00000200: 0ebf 9a3e 5d53 a63c 0a12 c13d b2fb 923c
00000210: 823b ae3c a199 39bd d452 523f 2e03 12be
00000220: a077 1f3e 411f 113f 0233 643d 726b f3be
00000230: 5834 9dbf 5a99 9dbe d742 04bf 2078 a83d
00000240: 9d80 b33c 5f94 d4be 628f 083f cd1b dbbd
00000250: e5c6 0fbe 9ba2 06c0

fc_input.bias f4 [50]
-0.3319798 0.16096574 -1.0697765 -0.79101044 0.008646607 0.20562583 1.396817 -0.46041182
0.35258144 0.3056118 -0.30862784 -0.17582637 -0.20206639 2.3070722 -2.152939 1.2544844
-0.19708776 -0.48061675 0.43378368 -0.34017286 -0.2810181 0.16126187 -0.55770785 0.11414025
1.4754528 1.1814872 0.07695888 0.0032882805 0.499739 -0.82157356 -0.005751431 0.022021605
-1.4160469 -0.59101176 0.25606775 -2.7935934 0.87142134 0.49488437 -1.467895 0.100906685
-0.14734846 -0.64653563 -1.8461171 -1.4648186 -1.1567833 -0.58130866 0.79278755 0.54627764
-0.16033806 1.9712679
00000000: 42f9 a9be 34d4 243e 70ee 88bf a97f 4abf
00000010: 80aa 0d3c 948f 523e e6ca b23f 19bb ebbe
00000020: 8e85 b43e 2679 9c3e 7804 9ebe d40b 34be
00000030: 7eea 4ebe 12a7 1340 c1c9 09c0 f292 a03f
00000040: 60d1 49be 6613 f6be e518 de3e 232b aebe
00000050: 9be1 8fbe d521 253e f1c5 0ebf 5dc2 e93d
00000060: a3db bc3f f93a 973f 9e9c 9d3d 3180 573b
00000070: cadd ff3e a552 52bf 8076 bcbb a766 b43c
00000080: 0641 b5bf 8c4c 17bf 501b 833e 3cca 32c0
00000090: 7815 5f3f 7c61 fd3e fce3 bbbf 2aa8 ce3d
000000a0: 84e2 16be 5c83 25bf 914d ecbf 2d7f bbbf
000000b0: 7a11 94bf a5d0 14bf 20f4 4a3f dad8 0b3f
000000c0: a92f 24be 8252 fc3f

fc_hidden.0.weight f4 [25, 50]
-0.09500826 0.14084361 -0.5406132 -0.024136383 0.027137637 0.06398386 0.43068725 -0.37154734
0.2451193 -0.12389466 0.039303347 0.23478147 0.1132752 0.51266146 -1.1844425 0.51377255
-0.1289119 0.017245412 -0.07075961 0.0893766 -0.31538993 -0.2249393 -0.048902284 0.12265155
-0.27820286 0.103866264 0.10157374 -0.44256365 0.07428294 -0.05628421 -0.053125262 -0.4076914
-0.70190436 -0.029907105 -0.048926055 -1.0443336 0.08639892 0.03029257 -0.12346115 -0.06775412
0.03447184 -0.47458178 -1.0085301 -0.2169376 -0.802798 -0.17362002 0.44754085 0.001666531
0.0042035556 0.87400496 0.024868704 0.12834065 -0.10847743 -0.0024251011 -0.095256165 0.07911943
-0.7307917 -0.06623014 -0.059200592 -0.060074314 -0.17301843 0.08438061 0.15877454 0.059130616
-0.990486 -0.110528596 0.10219695 -0.012448117 -0.056848634 -0.037409946 0.024939494 -0.007521695
0.029811842 0.04844316 -0.42323616 -0.57692677 -0.06320181 0.213201 -0.11104514 -0.17475143
-0.08666526 0.38087022 -0.15819672 0.025729213 -0.033582576 -0.39155766 -0.47680658 -0.031610943
-0.09113808 0.04328483 -0.10949386 0.11237244 -1.143612 -0.0027714013 -0.37006176 -0.08568903
-1.0113399 0.06985609 -0.008735449 -0.15050335 -0.06541732 0.05121714 -0.14805745 0.032540087
0.100182995 0.0065312684 0.36303648 0.010683671 0.11058222 0.022107735 -0.14576493 0.0070425123
-0.022317566 -0.16218406 -0.3225133 -0.033029467 0.13793139 -0.120428324 -0.10354316 0.090937674
0.03863442 0.059100345 -0.13024569 -0.1351829 0.08220172 -0.03188969 -0.16065693 -0.18870538
-0.040606953 -0.06252992 0.13083343 -0.23528853 -0.059940055 -0.03717587 -0.013065621 -0.24175961
0.022335771 0.04843475 0.045750614 0.16400032 0.12039365 -0.07899648 -0.14922847 -0.12238251
0.06372018 0.10707058 0.32040322 -0.1171469 -0.0876641 -0.15408112 -0.03864913 0.058316857
-0.041477665 -0.15686218 -0.07724971 0.028306797 -0.09974687 -0.16274315 -0.14571291 0.07445876
-0.108584456 -0.13685563 0.023532525 -0.11882128 -0.10996082 0.09488877 -0.09063798 0.11342673
0.060041513 -0.10334226 -0.06313117 0.046344522 -0.10168666 -0.059325177 -0.07967422 -0.006673733
0.036449812 -0.124302045 0.024175614 -0.004497619 -0.027480774 0.05511832 -0.1386152 -0.121838644
0.12319468 0.023648636 -0.17789742 0.12846793 0.0058455123 0.03757192 -0.13668232 -0.06498228
0.023397846 -0.12746651 0.10710565 -0.1316699 -0.067158036 0.07414617 -0.0389674 -0.11777853
0.20912455 -0.05375652 -0.1892292 0.21304372 0.023226067 0.035220668 0.2147667 -0.77411056
0.21204987 -0.10414134 -0.32170436 -0.30725884 0.017893251 -0.09106819 -0.24093004 -0.7135061
-0.09817089 0.042877287 -0.3643873 -0.11824823 0.011186333 -0.5047298 -0.139144 -0.14874198
0.1816448 0.12403917 0.023872895 -0.25176665 0.0809391 0.095202684 -0.13996351 -0.22496463
-0.16099513 -0.120970964 -0.105768114 0.015841203 0.25141716 0.11415093 -0.1357245 -0.09421105
-0.13585842 -0.23230097 -0.46834636 -0.16617522 0.056180965 -0.24960335 -1.5876505 0.014037266
0.00804744 -0.16260406 -0.12056047 0.08968465 -0.14179602 0.010371461 0.1202576 0.13136615
00000000: b193 c2bd 4f39 103e a065 0abf aab9 c5bc
00000010: c04f de3c f809 833d 0a83 dc3e 743b bebe
00000020: 8e00 7b3e 7cbc fdbd 8cfc 203d 8e6a 703e
00000030: d4fc e73d c83d 033f d09b 97bf 9986 033f
00000040: 7b01 04be 4046 8d3c 6aea 90bd 140b b73d
00000050: ca7a a1be 7d56 66be c34d 48bd bc30 fb3d
00000060: 9b70 8ebe d6b7 d43d e505 d03d b497 e2be
00000070: a721 983d 468a 66bd e099 59bd edbc d0be
00000080: 01b0 33bf bfff f4bc b066 48bd b9ac 85bf
00000090: ebf1 b03d 2028 f83c 33d9 fcbd acc2 8abd
000000a0: 5832 0d3d 62fc f2be 8417 81bf e424 5ebe
000000b0: 2b84 4dbf 72c9 31be 1324 e53e 806f da3a
000000c0: fbbd 893b cabe 5f3f 74b9 cb3c bb6b 033e
000000d0: 6a29 debd 72ee 1ebb aa15 c3bd 5e09 a23d
000000e0: 2a15 3bbf aba3 87bd 527c 72bd 7c10 76bd
000000f0: be2b 31be becf ac3d cb95 223e f232 723d
00000100: 7e90 7dbf d15c e2bd a24c d13d 30f3 4bbc
00000110: 1dda 68bd 2c3b 19bd e94d cc3c 8d78 f6bb
00000120: f737 f43c 566c 463d 69b2 d8be 79b1 13bf
00000130: f36f 81bd 5d51 5a3e a26b e3bd 0af2 32be
00000140: 8e7d b1bd 6c01 c33e 52fe 21be 12c6 d23c
00000150: e28d 09bd 3f7a c8be fe1f f4be 7a7a 01bd
00000160: 9aa6 babd 6f4b 313d 513e e0bd 8623 e63d
00000170: e161 92bf 66a0 35bb bc78 bdbe bb7d afbd
00000180: 9673 81bf b610 8f3d 211f 0fbc 8d1d 1abe
00000190: 84f9 85bd 10c9 513d 5f9c 17be c148 053d
000001a0: be2c cd3d 4004 d63b ebdf b93e 900a 2f3c
000001b0: ee78 e23d 481b b53c 6743 15be e0c4 e63b
000001c0: 54d3 b6bc 9413 26be 7720 a5be e849 07bd
000001d0: e33d 0d3e 20a3 f6bd 700e d4bd 883d ba3d
000001e0: 203f 1e3d 3413 723d 205f 05be 636d 0abe
000001f0: 6059 a83d c39e 02bd 4083 24be fc3b 41be
00000200: 7a53 26bd b00f 80bd 33f9 053e 7aef 70be
00000210: b483 75bd ba45 18bd 3011 56bc d58f 77be
00000220: 82f9 b63c 8463 463d ff64 3b3d b3ef 273e
00000230: f290 f63d e8c8 a1bd 59cf 18be aea3 fabd
00000240: ba7f 823d d247 db3d e40b a43e b7ea efbd
00000250: 3c89 b3bd 71c7 1dbe 8d4e 1ebd a8dd 6e3d
00000260: 7ce4 29bd 7ba0 20be 1935 9ebd a8e3 e73c
00000270: 1648 ccbd 24a6 26be c435 15be d67d 983d
00000280: 8761 debd e223 0cbe 48c7 c03c 9258 f3bd
00000290: 2333 e1bd 0b55 c23d 68a0 b9bd 464c e83d
000002a0: 17ee 753d 1ba5 d3bd ea4a 81bd c1d3 3d3d
000002b0: 1841 d0bd f5fe 72bd 3d2c a3bd 54af dabb
000002c0: 664c 153d 1292 febd f00b c63c c360 93bb
000002d0: 5c1f e1bc bfc3 613d 25f1 0dbe 8a86 f9bd
000002e0: 7e4d fc3d c9ba c13c be2a 36be 198d 033e
000002f0: b68b bf3b 03e5 193d 73f6 0bbe 6e15 85bd
00000300: d7ac bf3c 9586 02be 355a db3d 79d4 06be
00000310: 278a 89bd f2d9 973d 489c 1fbd df35 f1bd
00000320: bf24 563e cc2f 5cbd 4dc5 41be 2228 5a3e
00000330: 9844 be3c 8c43 103d cdeb 5b3e 1c2c 46bf
00000340: 9a23 593e 0e48 d5bd 6fb6 a4be 0851 9dbe
00000350: de94 923c f681 babd 5db6 76be 56a8 36bf
00000360: d20d c9bd 18a0 2f3d f990 babe 212c f2bd
00000370: e246 373c f935 01bf c47b 0ebe d14f 18be
00000380: 1801 3a3e 4008 fe3d 1791 c33c 8fe7 80be
00000390: 66c3 a53d a0f9 c23d 9852 0fbe 215d 66be
000003a0: e8db 24be a0bf f7bd f49c d8bd 69c5 813c
000003b0: c0b9 803e f6c7 e93d 5dfb 0abe b9f1 c0bd
000003c0: 781e 0bbe 4ee0 6dbe 18cb efbe d629 2abe
000003d0: 031e 663d 0598 7fbe 2238 cbbf 90fc 653c
000003e0: 69d9 033c ae81 26be 68e8 f6bd 96ac b73d
000003f0: fa32 11be 0fed 293c 9e49 f63d d984 063e

fc_hidden.0.bias f4 [25]
0.63565207 -0.051922943 -0.15175478 -0.02985074 -0.18692587 -0.064049646 -0.24892895 -0.30707842
0.06069814 -0.41346884 -0.23880179 -0.068058826 -1.1769539 0.10368828 0.035986558 -0.14732067
-0.035647344 -0.22617655 -0.63271874 1.0302461 -0.04979065 -0.012091352 -0.015171532 -1.9977658
-0.19484106
00000000: 18ba 223f 27ad 54bd 9b65 1bbe 8a89 f4bc
00000010: 7f69 3fbe 762c 83bd 3be7 7ebe 6239 9dbe
00000020: 9d9e 783d 30b2 d3be 7588 74be 6d62 8bbd
00000030: 6da6 96bf 855a d43d a466 133d 3bdb 16be
00000040: f302 12bd d39a 67be dbf9 21bf 1bdf 833f
00000050: 48f1 4bbd ce1a 46bc 0492 78bc cab6 ffbf
00000060: 6a84 47be

fc_output.weight f4 [5, 25]
-0.03470727 -0.35142502 -0.10848712 -0.14697409 -0.09919889 0.09725876 -0.06456162 0.0072046663
-0.12459595 0.348709 -0.1794186 0.29656497 0.12831494 -0.23379666 -0.14661796 0.010299372
-0.00033675728 0.17409812 -0.0518596 0.009515561 -0.048430998 0.05923015 -0.39240128 0.61492884
0.062917404 -0.5438631 0.26158366 0.09722943 -0.021829082 0.013160281 -0.003590046 -0.077069856
-0.21969907 -0.08771945 0.084832214 -0.006316103 0.20785701 0.20012604 -0.12158755 -0.02922291
0.034073982 -0.06895334 0.11934555 -0.13704613 0.48882073 -0.14571816 -0.06702655 -0.1151908
-0.10709109 0.15761858 -1.1527992 -1.0496391 -0.05460777 0.121131316 -0.18116204 0.08034193
-0.07205218 -0.39183447 0.05977651 0.24754414 -0.06470092 -0.16560411 0.8006799 -0.2502416
-0.028355096 -0.04554924 -0.0043417797 0.36293253 0.10180674 1.0251629 0.026084676 0.12085006
-0.39145565 -0.24651876 -0.12372317 0.1921818 -0.7220941 0.26058045 0.13433969 0.11936889
-0.055455387 0.13168435 -0.33976835 -0.11495613 0.6228904 -0.11706121 0.9606621 -0.3559864
-0.52763826 -0.12912014 0.14239949 0.070886955 -0.043666195 -0.027688803 -0.23603407 -0.15516378
0.09290731 -0.92094713 0.47501254 -0.037516356 7.3035276e-06 1.620006e-05 0.0066837384 0.029601756
4.6619894e-05 -0.04590815 -0.021151388 2.7993514e-05 -0.00560421 -0.0007018202 -0.09251114 -0.003819955
-1.21633275e-05 9.149735e-07 -0.10182163 0.011898645 0.0038018103 0.012232974 -0.0064187124 -1.6506914e-05
0.13104668 0.012576637 0.0014002171 0.000113434886 0.060231157
00000000: 3629 0ebd fbed b3be 7f2e debd 6080 16be
00000010: ca28 cbbd 9a2f c73d e238 84bd 1f15 ec3b
00000020: 292c ffbd fc89 b23e 82b9 37be 5dd7 973e
00000030: fe64 033e 6468 6fbe 0523 16be b2be 283c
00000040: cc8e b0b9 c746 323e bb6a 54bd 28e7 1b3c
00000050: 955f 46bd 509b 723d d2e8 c8be fa6b 1d3f
00000060: d7da 803d 9d3a 0bbf 4bee 853e 3920 c73d
00000070: e7d2 b2bc 389e 573c fa46 6bbb cdd6 9dbd
00000080: cbf8 60be 41a6 b3bd 83bc ad3d 50f7 cebb
00000090: 78d8 543e d7ed 4c3e e502 f9bd e264 efbc
000000a0: 2991 0b3d 6937 8dbd 716b f43d d255 0cbe
000000b0: b646 fa3e 2437 15be 3745 89bd 27e9 ebbd
000000c0: 9352 dbbd c466 213e ed8e 93bf 935a 86bf
000000d0: 66ac 5fbd b213 f83d 8b82 39be 4f8a a43d
000000e0: 1890 93bd 879e c8be 37d8 743d 367c 7d3e
000000f0: ea81 84bd 2094 29be 5cf9 4c3f ab1f 80be
00000100: f248 e8bc d791 3abd 7d45 8ebb 4bd2 b93e
00000110: 0d80 d03d 8a38 833f 88af d53c 3c80 f73d
00000120: e06c c8be 6a6f 7cbe 9362 fdbd 4ecb 443e
00000130: 29db 38bf cd6a 853e 5890 093e ad77 f43d
00000140: 3025 63bd 43d8 063e 1ef6 adbe 1f6e ebbd
00000150: bf75 1f3f cabd efbd f4ed 753f d943 b6be
00000160: 4d13 07bf 1238 04be 2cd1 113e 2e2d 913d
00000170: 53db 32bd a1d3 e2bc eab2 71be 41e3 1ebe
00000180: 3046 be3d 31c3 6bbf d834 f33e c0aa 19bd
00000190: d310 f536 5de5 8737 4303 db3b 627f f23c
000001a0: bb89 4338 2f0a 3cbd ad45 adbc 9dd3 ea37
000001b0: 85a3 b7bb 5bfa 37ba 7b76 bdbd 3658 7abb
000001c0: 1811 4cb7 809c 7535 dc87 d0bd 89f2 423c
000001d0: cb27 793b d06c 483c 1054 d2bb 5478 8ab7
000001e0: 1a31 063e 3d0e 4e3c 7d87 b73a e4e3 ed38
000001f0: f2b4 763d

fc_output.bias f4 [5]
-0.26667866 0.061739817 -0.09724278 0.37910935 -0.49991566
00000000: 1b8a 88be e4e2 7c3d 3927 c7bd 9f1a c23e
00000010: f2f4 ffbe
