models/deep_q.onnx (onnx, 7316 bytes, 6 tensors)

fc_input.bias f4 [50]
0	0xbea9f942	-0.3319798
1	0x3e24d434	0.16096574
2	0xbf88ee70	-1.0697765
3	0xbf4a7fa9	-0.79101044
4	0x3c0daa80	0.008646607
5	0x3e528f94	0.20562583
6	0x3fb2cae6	1.396817
7	0xbeebbb19	-0.46041182
8	0x3eb4858e	0.35258144
9	0x3e9c7926	0.3056118
10	0xbe9e0478	-0.30862784
11	0xbe340bd4	-0.17582637
12	0xbe4eea7e	-0.20206639
13	0x4013a712	2.3070722
14	0xc009c9c1	-2.152939
15	0x3fa092f2	1.2544844
16	0xbe49d160	-0.19708776
17	0xbef61366	-0.48061675
18	0x3ede18e5	0.43378368
19	0xbeae2b23	-0.34017286
20	0xbe8fe19b	-0.2810181
21	0x3e2521d5	0.16126187
22	0xbf0ec5f1	-0.55770785
23	0x3de9c25d	0.11414025
24	0x3fbcdba3	1.4754528
25	0x3f973af9	1.1814872
26	0x3d9d9c9e	0.07695888
27	0x3b578031	0.0032882805
28	0x3effddca	0.499739
29	0xbf5252a5	-0.82157356
30	0xbbbc7680	-0.005751431
31	0x3cb466a7	0.022021605
32	0xbfb54106	-1.4160469
33	0xbf174c8c	-0.59101176
34	0x3e831b50	0.25606775
35	0xc032ca3c	-2.7935934
36	0x3f5f1578	0.87142134
37	0x3efd617c	0.49488437
38	0xbfbbe3fc	-1.467895
39	0x3dcea82a	0.100906685
40	0xbe16e284	-0.14734846
41	0xbf25835c	-0.64653563
42	0xbfec4d91	-1.8461171
43	0xbfbb7f2d	-1.4648186
44	0xbf94117a	-1.1567833
45	0xbf14d0a5	-0.58130866
46	0x3f4af420	0.79278755
47	0x3f0bd8da	0.54627764
48	0xbe242fa9	-0.16033806
49	0x3ffc5282	1.9712679

fc_hidden.0.bias f4 [25]
0	0x3f22ba18	0.63565207
1	0xbd54ad27	-0.051922943
2	0xbe1b659b	-0.15175478
3	0xbcf4898a	-0.02985074
4	0xbe3f697f	-0.18692587
5	0xbd832c76	-0.064049646
6	0xbe7ee73b	-0.24892895
7	0xbe9d3962	-0.30707842
8	0x3d789e9d	0.06069814
9	0xbed3b230	-0.41346884
10	0xbe748875	-0.23880179
11	0xbd8b626d	-0.068058826
12	0xbf96a66d	-1.1769539
13	0x3dd45a85	0.10368828
14	0x3d1366a4	0.035986558
15	0xbe16db3b	-0.14732067
16	0xbd1202f3	-0.035647344
17	0xbe679ad3	-0.22617655
18	0xbf21f9db	-0.63271874
19	0x3f83df1b	1.0302461
20	0xbd4bf148	-0.04979065
21	0xbc461ace	-0.012091352
22	0xbc789204	-0.015171532
23	0xbfffb6ca	-1.9977658
24	0xbe47846a	-0.19484106

fc_output.bias f4 [5]
0	0xbe888a1b	-0.26667866
1	0x3d7ce2e4	0.061739817
2	0xbdc72739	-0.09724278
3	0x3ec21a9f	0.37910935
4	0xbefff4f2	-0.49991566

onnx::MatMul_18 f4 [3, 50]
0	0xbeff1331	-0.4981933
1	0xbeb7fc12	-0.35934502
2	0x3d99ab29	0.07503349
3	0xbdae40b7	-0.08508437
4	0xbea2f361	-0.31826308
5	0xbec142e2	-0.3774634
6	0xbec34b29	-0.3814328
7	0x3e0b101d	0.13580365
8	0x3ae099f4	0.0017135725
9	0xbb879b00	-0.0041383505
10	0xbf125360	-0.5715847
11	0xbed50c3b	-0.41610894
12	0x3d95eab2	0.07320155
13	0xbe87c498	-0.26517177
14	0x3ee2cec9	0.4429839
15	0xbdefef3b	-0.117155515
16	0xbe815686	-0.25261325
17	0xbe3bfeb6	-0.18358883
18	0xbdcc051b	-0.09961911
19	0xbef0984e	-0.469912
20	0x3dc2af1a	0.09506054
21	0xbf46cf54	-0.7766011
22	0x3d111b3d	0.035426367
23	0xbac1eff8	-0.0014796248
24	0xbd0131a5	-0.031541485
25	0xbef5ccac	-0.48007715
26	0x3b908a3b	0.0044110096
27	0xbf4a8cef	-0.791213
28	0x3bbb84fc	0.00572264
29	0xbaf28656	-0.001850317
30	0xbda85bd0	-0.08220637
31	0xbf7795c0	-0.96712875
32	0x3dcbd5a7	0.0995286
33	0x3d036835	0.0320818
34	0xbecf13ac	-0.40444696
35	0x3e6104d9	0.21974505
36	0xbe3855d9	-0.18001498
37	0xbe67bd40	-0.22630787
38	0xbe17c922	-0.1482282
39	0xbf2ab230	-0.6667814
40	0xbf065b15	-0.5248273
41	0x3d8e988f	0.06962692
42	0x3edbca2b	0.4292768
43	0x3ca6535d	0.020303423
44	0x3cae3b82	0.02126861
45	0xbe12032e	-0.14259025
46	0x3d643302	0.055712707
47	0xbe9d995a	-0.3078106
48	0x3cb3809d	0.021911914
49	0xbddb1bcd	-0.10698662
50	0x3e82046f	0.25394008
51	0xbba33c00	-0.004981518
52	0xbeb3ed41	-0.35141948
53	0x3db0c4a6	0.08631258
54	0xbe92878c	-0.2861904
55	0x3d460280	0.048342228
56	0xbe81aded	-0.25328007
57	0xbfb26bb5	-1.393912
58	0xbf2102f0	-0.6289511
59	0xbeeb46b0	-0.45952368
60	0x3e8fae48	0.28062654
61	0x3e32cb23	0.17460303
62	0xbf3792a2	-0.7170812
63	0x3eb84c04	0.35995495
64	0xbd868d94	-0.06569973
65	0xbee3229e	-0.44362348
66	0xbe5e6d62	-0.21721414
67	0xbf00b0bc	-0.50269675
68	0xbebb6685	-0.36601654
69	0x3e5b2f80	0.21404839
70	0xbf727d94	-0.94722867
71	0x3e6a99d3	0.22910242
72	0xbe6123a4	-0.21986252
73	0xbde2a749	-0.11067063
74	0xbd365f78	-0.04452464
75	0xbe048bd9	-0.12943973
76	0xbeaa9ba8	-0.3332188
77	0x3e6ffd46	0.2343646
78	0xbea4fe56	-0.32225293
79	0x3d448378	0.04797694
80	0xbce15580	-0.02750659
81	0x3eae3d0d	0.34030953
82	0xbeb4f4bc	-0.35342968
83	0xbe9da362	-0.30788714
84	0xbf129b75	-0.5726846
85	0x3e5a4f70	0.21319366
86	0xbef992c3	-0.48744783
87	0x3cb0c780	0.021579504
88	0x3e301d99	0.1719879
89	0x3eac6b20	0.3367548
90	0xbd858cf0	-0.06521022
91	0xbf56d893	-0.83924216
92	0xbda254a6	-0.07926302
93	0x3dc1120a	0.09427269
94	0xbd3999a1	-0.045312528
95	0x3e1f77a0	0.15572977
96	0xbef36b72	-0.47542912
97	0xbf0442d7	-0.5166449
98	0xbed4945f	-0.41519448
99	0xbe0fc6e5	-0.14040716
100	0x3efdef54	0.49596655
101	0x3dc257e8	0.09489423
102	0x3e808414	0.25100768
103	0x3f54e771	0.8316565
104	0xbdca3a58	-0.098744094
105	0xbe9f2705	-0.31084457
106	0xbf1121fc	-0.5669248
107	0x3f06b694	0.5262234
108	0xbf52373e	-0.8211554
109	0xbce64ea0	-0.028113663
110	0x3f052e52	0.52023804
111	0x3e3cb47a	0.18428221
112	0x3d4ebc08	0.05047229
113	0x3d1f1306	0.0388365
114	0x3fb63195	1.4233881
115	0xbdaee5cc	-0.08539924
116	0x3dd7ea40	0.105427265
117	0xbed40e1c	-0.41417015
118	0x3fb85367	1.4400452
119	0x3e1befd0	0.152282
120	0xbe1154b8	-0.14192474
121	0xbed7bd17	-0.42136452
122	0x3e8b1c74	0.27170146
123	0xbdc710ea	-0.09720023
124	0x4044f037	3.0771616
125	0xbf7e761b	-0.99398965
126	0xbef6fca3	-0.48239622
127	0xbee7bbae	-0.45260376
128	0xbc94f335	-0.018182376
129	0x3e935748	0.28777528
130	0x3c856da0	0.016287625
131	0xbd7570dc	-0.059922084
132	0x3d7faba6	0.062419556
133	0xbec45749	-0.38347843
134	0x3ee3cb28	0.44490933
135	0x3f749be9	0.955504
136	0x400e56c4	2.2240458
137	0x3f00b952	0.50282776
138	0xbdf32ada	-0.11873408
139	0x3f9a3383	1.204697
140	0xbea1f5d3	-0.31632861
141	0x3f648ced	0.89277536
142	0x3e9abf0e	0.30223888
143	0x3c92fbb2	0.017942283
144	0x3f5252d4	0.82157636
145	0x3f111f41	0.56688315
146	0xbf9d3458	-1.2281599
147	0x3da87820	0.08226037
148	0x3f088f62	0.53343785
149	0xc006a29b	-2.1036747

onnx::MatMul_19 f4 [50, 25]
0	0xbdc293b1	-0.09500826
1	0x3ccbb974	0.024868704
2	0xbd85f984	-0.06541732
3	0xbd1e4e8d	-0.03864913
4	0x3e5624bf	0.20912455
5	0xbdf6e868	-0.12056047
6	0xbd486c72	-0.048931547
7	0xbdcfc132	-0.10144271
8	0xbc556f6f	-0.013027056
9	0x3e092f08	0.13396847
10	0x3d9dec33	0.07711067
11	0xbbdbd9dc	-0.0067093205
12	0xbec633fd	-0.3871154
13	0xbd956f6f	-0.07296645
14	0xbdb7603d	-0.08953903
15	0x3dd7315e	0.10507463
16	0x3ce1aeed	0.027549231
17	0xbd01ea39	-0.031717513
18	0x3d07c543	0.033147108
19	0xbe0006c2	-0.12502578
20	0x3dcdc53d	0.10047386
21	0xbdd1c6f0	-0.102430224
22	0xbcbe9e1a	-0.023268748
23	0xbe41f8c7	-0.18942557
24	0xbe0946c0	-0.13405895
25	0x3e10394f	0.14084361
26	0x3e036bbb	0.12834065
27	0x3d51c910	0.05121714
28	0x3d6edda8	0.058316857
29	0xbd5c2fcc	-0.05375652
30	0x3db7ac96	0.08968465
31	0x3d023d0c	0.0317965
32	0xbb91cf80	-0.0044497848
33	0xbdf4f86b	-0.119614445
34	0x3d2e9494	0.042622164
35	0x3e023603	0.12715916
36	0x3de98bde	0.11403631
37	0x3bd0be20	0.006370321
38	0xbd4bb8d2	-0.049736805
39	0xbd9c695d	-0.07637284
40	0xbcff7c58	-0.031187221
41	0x3c7088b0	0.014681026
42	0x3bd65580	0.006540954
43	0xbd47869e	-0.048712365
44	0x3d223490	0.03960091
45	0x3d0488b0	0.032356918
46	0x3bcbe540	0.006222397
47	0xbce62874	-0.028095461
48	0x3c476760	0.012170643
49	0x3b2f2f40	0.0026731044
50	0xbf0a65a0	-0.5406132
51	0xbdde296a	-0.10847743
52	0xbe179c5f	-0.14805745
53	0xbd29e47c	-0.041477665
54	0xbe41c54d	-0.1892292
55	0xbe1132fa	-0.14179602
56	0xbe0a78eb	-0.13522689
57	0x3cc4a672	0.024005149
58	0xbd4e78fe	-0.050408356
59	0x3ce9e23a	0.028550256
60	0xbdc1894e	-0.09450017
61	0xbe4f35cf	-0.2023537
62	0xbe287293	-0.16449957
63	0xbd1bdc3c	-0.03805183
64	0x3da1d96c	0.07902798
65	0xbd115747	-0.035483625
66	0xbd9b5159	-0.07583875
67	0xbe23490a	-0.15945831
68	0x398adfac	0.0002648806
69	0xbe979501	-0.29605868
70	0x3d186f55	0.03721555
71	0x3bcf43d7	0.006325226
72	0x3ccc2d9e	0.024924096
73	0x3e11cb54	0.1423772
74	0xbe0a7eaf	-0.13524888
75	0xbcc5b9aa	-0.024136383
76	0xbb1eee72	-0.0024251011
77	0x3d0548c1	0.032540087
78	0xbe20a07b	-0.15686218
79	0x3e5a2822	0.21304372
80	0x3c29ed0f	0.010371461
81	0xbdbb8e89	-0.09158046
82	0x3c952873	0.018207764
83	0xbdde4bdf	-0.10854315
84	0xbc4601e6	-0.012085414
85	0xbe47a33f	-0.19495867
86	0xbec6a424	-0.38797104
87	0x3df0eb6d	0.11763654
88	0xbe09de86	-0.13463792
89	0x3d761502	0.06007863
90	0xbd0b63c9	-0.03403071
91	0x3de8aec5	0.1136146
92	0xbbcd5106	-0.0062657623
93	0xbf2a382a	-0.6649195
94	0xbeb7662a	-0.35820132
95	0xbda3f64c	-0.08005962
96	0xbe1d2c45	-0.15348919
97	0x3d91916b	0.071078144
98	0x3d915958	0.07097119
99	0x3d4498bc	0.04799722
100	0x3cde4fc0	0.027137637
101	0xbdc315aa	-0.095256165
102	0x3dcd2cbe	0.100182995
103	0xbd9e3519	-0.07724971
104	0x3cbe4498	0.023226067
105	0x3df6499e	0.1202576
106	0x3c8475d0	0.016169459
107	0x3de6d7ea	0.11271651
108	0xbcae9a34	-0.021313764
109	0x3dd8b854	0.10582033
110	0xbe071517	-0.13191639
111	0x3d9c012a	0.076174095
112	0xbda64c2a	-0.08119996
113	0x3d653b1c	0.055964574
114	0xbc849818	-0.016185805
115	0x3d6c8ac4	0.057749525
116	0x3e09d187	0.13458835
117	0x3d59df74	0.053191617
118	0xbdcbc466	-0.099495694
119	0xbabf3700	-0.0014588535
120	0x3ddd49cc	0.10805091
121	0x3d470b84	0.048594967
122	0xbbb438c0	-0.005499929
123	0x3e089e95	0.13341744
124	0xbd461eb8	-0.04836914
125	0x3d8309f8	0.06398386
126	0x3da2095e	0.07911943
127	0x3bd60440	0.0065312684
128	0x3ce7e3a8	0.028306797
129	0x3d10438c	0.035220668
130	0x3e0684d9	0.13136615
131	0x3d1f0004	0.038818374
132	0xbe0c8a63	-0.13724665
133	0x3d64c938	0.05585596
134	0xbdff9661	-0.124798544
135	0x3dd8e74e	0.10590993
136	0xbcfa5ce8	-0.03056188
137	0x3e061a35	0.13095935
138	0xbcd6c920	-0.02621895
139	0x3dfb459e	0.12269138
140	0xbdf93432	-0.121681586
141	0xbc11c610	-0.008897319
142	0x3e042791	0.12905718
143	0xbdeca1a6	-0.115542695
144	0xbd58cb90	-0.052928507
145	0xbdcd0f22	-0.10012652
146	0xbdc6cff8	-0.09707636
147	0x3d6ede9c	0.058317766
148	0xbdfb3ae0	-0.12267089
149	0xbba457c0	-0.0050153434
150	0x3edc830a	0.43068725
151	0xbf3b152a	-0.7307917
152	0x3eb9dfeb	0.36303648
153	0xbdcc4816	-0.09974687
154	0x3e5bebcd	0.2147667
155	0xbdcf5584	-0.10123733
156	0xbdc80fed	-0.097686626
157	0xbf6a5787	-0.91539806
158	0xbe36beb5	-0.17846186
159	0xbe4c0377	-0.19923197
160	0x3d835abc	0.064137906
161	0xbe1703b8	-0.14747512
162	0xbd8c3c09	-0.06847388
163	0xbf7b7c7a	-0.9823681
164	0xbccdc885	-0.02512003
165	0xbd1ee00f	-0.038787898
166	0xbdd29739	-0.1028275
167	0xbc90d3ae	-0.017679062
168	0xbe21884e	-0.15774652
169	0x3d85e8d4	0.06538549
170	0x3d5cc525	0.05389895
171	0xbd0d6026	-0.034515522
172	0x3efe424a	0.4965995
173	0xbf6494f3	-0.8928978
174	0xbda6631c	-0.08124372
175	0xbebe3b74	-0.37154734
176	0xbd87a3ab	-0.06623014
177	0x3c2f0a90	0.010683671
178	0xbe26a624	-0.16274315
179	0xbf462c1c	-0.77411056
180	0x3de16d73	0.11007204
181	0xbd7f02bf	-0.06225848
182	0xbce39271	-0.02777979
183	0xbd69447a	-0.05695007
184	0xbc2ce01c	-0.010551479
185	0x3d46825d	0.048464168
186	0xbd969660	-0.073529005
187	0xbf170e41	-0.59006125
188	0xbf7fd8e8	-0.9994035
189	0xbe2cc198	-0.16870725
190	0xbdb0132f	-0.08597409
191	0xbd579668	-0.052633673
192	0x3c4edc10	0.012625709
193	0xbd4c944f	-0.049946126
194	0xbe9c15a1	-0.30485252
195	0x3db9423e	0.09045838
196	0xbce82d9e	-0.028342064
197	0x3ea600e7	0.32422563
198	0x3e336b11	0.17521311
199	0xbdbf8740	-0.09351969
200	0x3e7b008e	0.2451193
201	0xbd727c52	-0.059200592
202	0x3de278ee	0.11058222
203	0xbe1535c4	-0.14571291
204	0x3e59239a	0.21204987
205	0xbde42fa9	-0.11141903
206	0xbe01338e	-0.12617323
207	0xbe224130	-0.1584518
208	0xbd9473fa	-0.07248683
209	0x3c793ac0	0.015211761
210	0xbd97f90f	-0.07420551
211	0xbf794c7c	-0.9738233
212	0xbef6f67d	-0.4823493
213	0xbf5e3069	-0.8679262
214	0xbd8f63a5	-0.070014276
215	0xbda231bc	-0.07919642
216	0xbd9561bc	-0.07294032
217	0x3d52f898	0.05150661
218	0xbe2fa168	-0.17151415
219	0xbcc01b08	-0.02345039
220	0x3cf32d9e	0.029684838
221	0xbe16811c	-0.14697689
222	0x3ea09a62	0.31367785
223	0x3d67b17f	0.056565758
224	0x3dc61fb0	0.09674013
225	0xbdfdbc7c	-0.12389466
226	0xbd76107c	-0.060074314
227	0x3cb51b48	0.022107735
228	0x3d987dd6	0.07445876
229	0xbdd5480e	-0.10414134
230	0xbcb0119c	-0.021492772
231	0xbdc30518	-0.09522456
232	0x3d1db714	0.038504675
233	0xbb94ac20	-0.0045371205
234	0xbdd8ab36	-0.10579531
235	0x3e053d43	0.1301165
236	0xbdf4292a	-0.11921914
237	0x3c36c110	0.011154428
238	0x3d39ffd8	0.045410007
239	0x3e06f24b	0.13178365
240	0x3d07b5f4	0.03313251
241	0x3df6ac36	0.120445654
242	0xbdac93fe	-0.08426665
243	0xbdcb5f2e	-0.099302635
244	0xbdb0d2ce	-0.08633958
245	0x3d1bbc3c	0.03802131
246	0xbde0bc52	-0.10973419
247	0x3cc7dbf0	0.024396867
248	0x3db07b92	0.08617319
249	0x3ddf4b4a	0.10903032
250	0x3d20fc8c	0.039303347
251	0xbe312bbe	-0.17301843
252	0xbe154367	-0.14576493
253	0xbdde6187	-0.108584456
254	0xbea4b66f	-0.32170436
255	0x3bdf736b	0.006819179

onnx::MatMul_20 f4 [25, 5]
0	0xbd0e2936	-0.03470727
1	0xbf0b3a9d	-0.5438631
2	0xbf938eed	-1.1527992
3	0x3e44cb4e	0.1921818
4	0x36f510d3	7.3035276e-06
5	0xbeb3edfb	-0.35142502
6	0x3e85ee4b	0.26158366
7	0xbf865a93	-1.0496391
8	0xbf38db29	-0.7220941
9	0x3787e55d	1.620006e-05
10	0xbdde2e7f	-0.10848712
11	0x3dc72039	0.09722943
12	0xbd5fac66	-0.05460777
13	0x3e856acd	0.26058045
14	0x3bdb0343	0.0066837384
15	0xbe168060	-0.14697409
16	0xbcb2d2e7	-0.021829082
17	0x3df813b2	0.121131316
18	0x3e099058	0.13433969
19	0x3cf27f62	0.029601756
20	0xbdcb28ca	-0.09919889
21	0x3c579e38	0.013160281
22	0xbe39828b	-0.18116204
23	0x3df477ad	0.11936889
24	0x384389bb	4.6619894e-05
25	0x3dc72f9a	0.09725876
26	0xbb6b46fa	-0.003590046
27	0x3da48a4f	0.08034193
28	0xbd632530	-0.055455387
29	0xbd3c0a2f	-0.04590815
30	0xbd8438e2	-0.06456162
31	0xbd9dd6cd	-0.077069856
32	0xbd939018	-0.07205218
33	0x3e06d843	0.13168435
34	0xbcad45ad	-0.021151388
35	0x3bec151f	0.0072046663
36	0xbe60f8cb	-0.21969907
37	0xbec89e87	-0.39183447
38	0xbeadf61e	-0.33976835
39	0x37ead39d	2.7993514e-05
40	0xbdff2c29	-0.12459595
41	0xbdb3a641	-0.08771945
42	0x3d74d837	0.05977651
43	0xbdeb6e1f	-0.11495613
44	0xbbb7a385	-0.00560421
45	0x3eb289fc	0.348709
46	0x3dadbc83	0.084832214
47	0x3e7d7c36	0.24754414
48	0x3f1f75bf	0.6228904
49	0xba37fa5b	-0.0007018202
50	0xbe37b982	-0.1794186
51	0xbbcef750	-0.006316103
52	0xbd8481ea	-0.06470092
53	0xbdefbdca	-0.11706121
54	0xbdbd767b	-0.09251114
55	0x3e97d75d	0.29656497
56	0x3e54d878	0.20785701
57	0xbe299420	-0.16560411
58	0x3f75edf4	0.9606621
59	0xbb7a5836	-0.003819955
60	0x3e0364fe	0.12831494
61	0x3e4cedd7	0.20012604
62	0x3f4cf95c	0.8006799
63	0xbeb643d9	-0.3559864
64	0xb74c1118	-1.21633275e-05
65	0xbe6f6864	-0.23379666
66	0xbdf902e5	-0.12158755
67	0xbe801fab	-0.2502416
68	0xbf07134d	-0.52763826
69	0x35759c80	9.149735e-07
70	0xbe162305	-0.14661796
71	0xbcef64e2	-0.02922291
72	0xbce848f2	-0.028355096
73	0xbe043812	-0.12912014
74	0xbdd087dc	-0.10182163
75	0x3c28beb2	0.010299372
76	0x3d0b9129	0.034073982
77	0xbd3a91d7	-0.04554924
78	0x3e11d12c	0.14239949
79	0x3c42f289	0.011898645
80	0xb9b08ecc	-0.00033675728
81	0xbd8d3769	-0.06895334
82	0xbb8e457d	-0.0043417797
83	0x3d912d2e	0.070886955
84	0x3b7927cb	0.0038018103
85	0x3e3246c7	0.17409812
86	0x3df46b71	0.11934555
87	0x3eb9d24b	0.36293253
88	0xbd32db53	-0.043666195
89	0x3c486cd0	0.012232974
90	0xbd546abb	-0.0518596
91	0xbe0c55d2	-0.13704613
92	0x3dd0800d	0.10180674
93	0xbce2d3a1	-0.027688803
94	0xbbd25410	-0.0064187124
95	0x3c1be728	0.009515561
96	0x3efa46b6	0.48882073
97	0x3f83388a	1.0251629
98	0xbe71b2ea	-0.23603407
99	0xb78a7854	-1.6506914e-05
100	0xbd465f95	-0.048430998
101	0xbe153724	-0.14571816
102	0x3cd5af88	0.026084676
103	0xbe1ee341	-0.15516378
104	0x3e06311a	0.13104668
105	0x3d729b50	0.05923015
106	0xbd894537	-0.06702655
107	0x3df7803c	0.12085006
108	0x3dbe4630	0.09290731
109	0x3c4e0e3d	0.012576637
110	0xbec8e8d2	-0.39240128
111	0xbdebe927	-0.1151908
112	0xbec86ce0	-0.39145565
113	0xbf6bc331	-0.92094713
114	0x3ab7877d	0.0014002171
115	0x3f1d6bfa	0.61492884
116	0xbddb5293	-0.10709109
117	0xbe7c6f6a	-0.24651876
118	0x3ef334d8	0.47501254
119	0x38ede3e4	0.000113434886
120	0x3d80dad7	0.062917404
121	0x3e2166c4	0.15761858
122	0xbdfd6293	-0.12372317
123	0xbd19aac0	-0.037516356
124	0x3d76b4f2	0.060231157
